code/models/saved_models/net_params_7.pkl (torch, 18559 bytes, 10 tensors)

conv1.mlp.0.weight f4 [32, 6]
00000000: 6861 c93e 6eb1 9e3e 1ebd cd3e 9834 02bd
00000010: 2a3c aebe 416e 86be 56ca 2d3f c647 f03e
00000020: e6dc 21bf 8fd0 0b3e e478 e33f 2108 223f
00000030: 5ff5 403f 8942 853e 8215 2abf e654 813d
00000040: 90cf bb3f 0e0d f53e a437 17bf c677 a33e
00000050: 2990 d83d 95f4 d13e 6bac 1fc0 55af 7fbd
00000060: e094 a5be 65d1 343f c3d3 0a3f faa6 ee3e
00000070: f645 f3bf 4bbc 013f c2a5 a6bf 19b7 963e
00000080: cc12 3cbf a857 7c3e b7e3 c0be ddbf f13d
00000090: 79a7 823f 2e5f 8fbe 1d0c 1cbd 3d32 4a3e
000000a0: 5483 da3e dfdc c0ba 7606 57be 47d2 3ebe
000000b0: bda1 293f a5c3 0ebf b206 bbbe f956 373f
000000c0: b0f0 233d 2953 a5be 702a 7b3e cae8 8abe
000000d0: c0d0 d7bc 009e 9aba e929 73bf a6cd 0f3f
000000e0: 5b98 9ebe 9281 833f 5ac8 0dbf d19b 563e
000000f0: 9dce 6b3f 1fca c93e 1b9c 1c3f c992 6f3f
00000100: 4b77 0bbe ea83 92be f853 4fbe 0ae9 a0bc
00000110: a211 293e 8983 833e 7acf 683e df83 803e
00000120: 4afc 413f f30a 043f 6337 88be c535 9c3f
00000130: 7deb a03d 1c8a c73e 808f 55bd 4f29 25be
00000140: 0037 00bb 9c75 803e 2a2f b9be a10b a2be
00000150: 3c06 99bd d52b cfbe 203a 633d c8fe 93be
00000160: 3a9d bbbe 41d1 29be 5a31 82bd 88a1 0dbe
00000170: 2b05 ef3d c49e fabd 3ef9 923d 65e6 ca3d
00000180: de9a fabd df3b 2b3e 24e7 263d 2328 7a3d
00000190: 803b ae3d cff8 c7bd 5833 963f aeba a7be
000001a0: 6013 e43e 1644 55be a5ea b03e 54ba 37be
000001b0: 0753 c4be cc60 bb3d 7855 31bd 8fe0 cabe
000001c0: fc10 02be 2836 ac3e c4bb a73d d747 7fbe
000001d0: 4ebe 57be 4dbe 3ebe 73a3 58be f06f 9d3d
000001e0: 2a5b 9abd 001f 5e3f a230 d33e b375 eb3e
000001f0: 9435 853f 32d3 1c3e cdd9 bfbe 5ddf 533d
00000200: d75c 97bc de4e 8f3e a90d 2cbf 66a1 b4be
00000210: 77c3 3d3e a82a b33e d1c3 3e3e 3b85 073e
00000220: 5cbe 42be 5abf e93d 403c 18be d0c2 c13c
00000230: 802b 56bd 9c9c c33e 8e5b 883e 98f5 2e3d
00000240: a4d1 8abf 82a4 0b3f 0dd4 d43e dba1 363f
00000250: f555 01c0 16f3 35bf 9846 003e 778e d1bf
00000260: 8802 12bf b166 7abf 8f69 123f 0c27 303f
00000270: 68b6 153f eab7 e63e 225a 53be cd50 c23e
00000280: 80fb 72be 018a bebc c05c c73b 5206 07be
00000290: c0ef e63d f499 923e 7811 083d 6264 22be
000002a0: fe21 b6be 6dda 56be 78c2 003e e1a6 c2be
000002b0: 28ae cfbe 70b4 b53c 0da7 9abe 7023 bcbf
000002c0: e737 10bf fa19 32bf 9f42 8fbe 3c77 893d
000002d0: 4f75 6e3f 56ad d63e 960d 2fbe 9070 ee3e
000002e0: 7481 29bd a1cd 09bd 9779 47bf 54ea 073f
000002f0: 429c 16bd 43e9 023e 2a42 d4bf 9763 bcbe
0.39332128 0.30994743 0.40183347 -0.03178844 -0.34030277 -0.26255992 0.67886865 0.4692976
-0.6322769 0.13653778 1.7771268 0.63293654 0.75374407 0.26027325 -0.6643907 0.06315021
1.4672718 0.47861522 -0.59069276 0.31927317 0.10574371 0.41006914 -2.4948986 -0.06242307
-0.32340145 0.7063201 0.5422937 0.46611768 -1.9005725 0.5067794 -1.3019335 0.29436567
-0.7346618 0.24642813 -0.37673733 0.11804173 1.0207359 -0.28002304 -0.03809749 0.19745727
0.4267832 -0.0014714262 -0.20998558 -0.18634902 0.6626242 -0.5576728 -0.36528546 0.71617085
0.04002446 -0.3229001 0.24527907 -0.2713073 -0.026344657 -0.0011796355 -0.94985825 0.5617317
-0.30975613 1.0273917 -0.5538384 0.20957877 0.9211214 0.3941202 0.611757 0.9358335
-0.13619725 -0.28616267 -0.20246875 -0.019642372 0.16510633 0.2568629 0.22735396 0.2510061
0.7577559 0.5157921 -0.26604757 1.2203909 0.07857416 0.38972557 -0.052138805 -0.16129039
-0.0019564033 0.2508973 -0.36168796 -0.31649497 -0.07471892 -0.4046313 0.055475354 -0.2890532
-0.36643392 -0.1658373 -0.06357069 -0.1383115 0.116709076 -0.122373134 0.071764454 0.099072255
-0.1223657 0.16722058 0.040747777 0.061073434 0.085074425 -0.09764253 1.1734419 -0.32759613
0.44546032 -0.20826754 0.3455402 -0.17942172 -0.38344595 0.09149322 -0.0432944 -0.3962445
-0.12701792 0.33635068 0.0819011 -0.24929748 -0.21068689 -0.18627281 -0.21156101 0.07687366
-0.075369194 0.8676605 0.4124804 0.45988235 1.0406976 0.1531494 -0.37470856 0.051726688
-0.018476887 0.27989858 -0.67208344 -0.35279387 0.18531595 0.34993482 0.18629386 0.13234417
-0.19017929 0.114134505 -0.14866734 0.023652464 -0.05228758 0.3820542 0.2663235 0.042714685
-1.0845227 0.54547894 0.41568032 0.7134072 -2.0208714 -0.71074045 0.1252693 -1.6371602
-0.5703511 -0.97812945 0.5719232 0.6880958 0.58481455 0.4506219 -0.20639852 0.3795227
-0.23728752 -0.023259165 0.0060840547 -0.13186005 0.112761974 0.28633082 0.033219784 -0.15858606
-0.3557281 -0.2098176 0.12574184 -0.38017944 -0.40562558 0.022180766 -0.30205575 -1.4698315
-0.563353 -0.6957089 -0.27980515 0.06712195 0.9314775 0.4192912 -0.17095026 0.46570253
-0.04138322 -0.03364337 -0.77919906 0.5309193 -0.036770113 0.12784295 -1.6582692 -0.3679473

conv1.mlp.0.bias f4 [32]
00000000: 3e6e c4be 0a63 8abe 3536 90be eb0d ba3e
00000010: d903 883e 2c50 993e 6abd 0f3c 9c29 90be
00000020: f562 9dbe 6271 a13e 4f7e 29bd d34a 16be
00000030: cb1a b3bb 6c2b 6bbe 1675 b2be eef7 a6be
00000040: ede7 39be a8ef a4bd ed74 bbbe d5ba bbbe
00000050: 11bf b2bd f730 88be a807 58be 2925 cabe
00000060: 2bff 173f a950 3cbe 6f67 32bd 2a3b 86be
00000070: f2ec bdbe d482 ee3c 4294 023e 2eba df3e
-0.38365358 -0.27028686 -0.28166357 0.36338744 0.26565436 0.2994398 0.008773187 -0.28156745
-0.3073956 0.31531817 -0.041380223 -0.1467698 -0.0054658405 -0.22965783 -0.34854954 -0.3261103
-0.18154879 -0.08053523 -0.36612645 -0.3666598 -0.08727849 -0.26599857 -0.2109667 -0.39481476
0.5937373 -0.18390144 -0.043555673 -0.26217014 -0.37094837 0.029115118 0.12751868 0.4369673

conv1.mlp.2.weight f4 [32, 32]
00000000: 083c abbc 7328 6c3e 1327 523e 838d 1abf
00000010: 8d1c e0be 9bc2 9cbe cd08 233e 9d05 7bbe
00000020: 610d 2a3e 47c7 f8be 6f4c 1cbf a0b4 eabc
00000030: b43b eabe b69d 5ebd cca3 80bd 5883 fb3c
00000040: 4343 b1be 91b3 873e 1368 1dbe a4eb 1fbe
00000050: 51f3 59be f7c1 ffbd 59c2 9dbd 4614 d13d
00000060: e512 03bf 36fa 113f 440c 67be 8a74 6cbd
00000070: dad0 71bd d2eb 083f 32cf 4dbe c6f3 e9be
00000080: e1a2 1c3e 5381 d83e 4792 a13e 7d6a 8ebe
00000090: 60e9 b13d 9a74 8cbf 10be e93e a220 0bbe
000000a0: 062e aa3d 211b febe 3572 e93e 83e7 cc3d
000000b0: 9fbc 183f 1120 acbd 4d47 1abe 8c43 ffbd
000000c0: d9b8 7e3e 5d0b 1a3f 641b 8f3d c830 f1bd
000000d0: 6e5a b2be fab5 1abe b1e9 b83b 471f 20be
000000e0: 38b8 11bf d7b7 3ebc b8e2 8e3e 6ce9 09be
000000f0: 39ed 89bd 84d9 81bd 8853 283f d275 b9be
00000100: 009f 1fbd e36a f0bd 896e 4dbe d6be d4bd
00000110: 5cf7 34be 007c debd 0e3b a1bb 7c7b 633d
00000120: c2cb c8bd 61c5 b2bd 2321 af3b b286 4ebe
00000130: 10ba 723d b9bd 023e 2c7a 71bd 5e56 bf3d
00000140: ee9f dfbd 4122 44bd 80f4 98ba 3dbc 103e
00000150: e5bf e63d dede b7bc 62d3 483d 6f7f 2b3e
00000160: 4d11 a7bc e331 69be e35d 09be f084 51bd
00000170: 9054 32bd 3e34 62be f06c 20be 8f8c debc
00000180: 0578 32be a6b9 3abf 943f 2ebf 6b9f 5f3d
00000190: 880c 243d 47eb af3e 8faa 49be c618 f7bd
000001a0: 002e 113d 8260 a23e fbbb 68bc 7936 c83d
000001b0: 8951 1cbf 49c7 223e 900a aa3c 5fb3 4f3e
000001c0: 78ee 92bd 6a92 81be 3890 11bd ab00 a1bd
000001d0: d2c1 c83d 3e1d fd3d 044d 3dbe 48e9 d2bd
000001e0: 1add bf3c 4bb4 00be 74e8 ffbd 8a34 ac3d
000001f0: 151e afbd 8e45 553d 7b74 0cbf 9b6d b03c
00000200: 9ccf 08be f512 793e 3c53 f2bd 7e07 b73d
00000210: de7e 833d 2c90 3d3e b9fb 94be 253f a93e
00000220: 8b3c c0bd 9dcc 8a3e 09d0 4bbe c4c4 323d
00000230: fd5c 66bc 6843 a1bc d352 0fbe 19e4 b6bd
00000240: a9cf 5c3e f138 05be 543f ddbd 0e23 cb3d
00000250: 34d5 d53b 49eb eb3d 3db1 0d3d 76a0 ae3d
00000260: 2be9 0bbe d7da febd fbe4 9dbb 0057 5d3a
00000270: f81c 52bd df82 92be 4fc9 4bbe b4ca 1d3e
00000280: 7337 98bd 5fc6 12be 5b02 65be fa2c 23bd
00000290: b20d 6cbe 7f6d 19be b5ed 2cbe 05e7 013e
000002a0: eac9 0abe c3be d23c 11f5 d83d 37ca 353b
000002b0: dd24 d93d 9a32 2dbe 60d9 e0bb 0240 13be
000002c0: aed7 663d 9dd5 a1bd b680 d43d d4bf 13bd
000002d0: b35f 213e 2f9a 073e e928 1ebe a5dd 253e
000002e0: df54 bebe 7d85 69be a6f1 cdbd 303e 5abd
000002f0: fb88 333e a402 bbbe 1837 1cbd c976 41be
00000300: ac32 803d 500c 26bd 35c8 0a3e 356d 273e
00000310: a745 d2bd cc31 5cbd c9ae 00be 2603 d33d
00000320: e5b9 27be 7651 72bd dcaf a8bd 4871 9e3c
00000330: dc82 70bd 97d0 0a3e 44c1 5a3d 5cb6 203d
00000340: 4a44 da3d b85f 80bc c894 233d 26ab a9bd
00000350: 3680 983d 44bd 5ebd afb8 083e 841f 9bbd
00000360: 0074 eebc f0b1 1ebe 1a64 da3d 67f8 ddbd
00000370: 5d0c 223e d83b 5a3d d01c 24bc 09b2 87bd
00000380: 30f4 25bd 66ed 00be a4d5 5a3d be9d 29be
00000390: 5f46 9dbd 58bb f9bd 22ef 803d 7086 673d
000003a0: 4964 223e 30bf dcbc 3141 153e 5a67 f8bd
000003b0: d81a eabd bd63 02be 004e 9b3b 97eb 23be
000003c0: e66b f53d 7fa0 0dbe 66e5 993d c6e5 9ebd
000003d0: c0eb 553b 502c 45bd 261a ac3d 1db5 2b3e
000003e0: 8671 32be 4a33 1bbe a01b 70bc 6088 cb3b
000003f0: 39bc 2c3e 2ebe 9f3d 00f2 c8ba bfbb 1bbe
-0.020902649 0.23062305 0.20522718 -0.6037218 -0.43771783 -0.30617222 0.15921326 -0.2451386
0.16606666 -0.48589537 -0.6105413 -0.028650582 -0.45748675 -0.054349624 -0.06281242 0.030702278
-0.3462163 0.26504186 -0.15371732 -0.15617234 -0.21284224 -0.12488168 -0.077030845 0.10208945
-0.51200706 0.57022417 -0.22563273 -0.057728328 -0.059037067 0.53484833 -0.2009857 -0.45693797
0.15296508 0.42286167 0.31556913 -0.2781562 0.08687091 -1.0973084 0.4565282 -0.13586667
0.083095595 -0.49630073 0.45594946 0.10005095 0.5966281 -0.08404554 -0.15066262 -0.124640554
0.24875201 0.6017359 0.06987646 -0.117768824 -0.34834617 -0.15108481 0.0056430926 -0.15636931
-0.5692172 -0.0116405105 0.27907348 -0.1346795 -0.067347 -0.06340316 0.6575246 -0.36222702
-0.038969994 -0.11739137 -0.20061697 -0.103879616 -0.17672485 -0.10863495 -0.00492037 0.055537686
-0.09804489 -0.08729053 0.0053445264 -0.2016857 0.059259474 0.12767686 -0.058954403 0.09342645
-0.10919176 -0.04788423 -0.0011669546 0.14134307 0.1126707 -0.022445139 0.049029715 0.16747831
-0.020393992 -0.22772937 -0.13414721 -0.05115217 -0.043537676 -0.22090241 -0.15666556 -0.027166633
-0.17428596 -0.7293953 -0.6806576 0.054595392 0.040051013 0.3435919 -0.19693969 -0.12065272
0.03544426 0.31714255 -0.014204974 0.09776015 -0.6106191 0.15896334 0.02075699 0.20283268
-0.071743906 -0.25307018 -0.03553793 -0.078614555 0.09802593 0.12359093 -0.1848641 -0.10298401
0.02342086 -0.12568776 -0.12495509 0.084084585 -0.085506596 0.052068286 -0.54865235 0.021536639
-0.13360447 0.24323638 -0.11832282 0.08936976 0.06420682 0.18512028 -0.290983 0.33055988
-0.09386548 0.27109233 -0.19903578 0.04364468 -0.014060256 -0.019685462 -0.13996439 -0.08930225
0.21563591 -0.13010003 -0.108030945 0.099187955 0.00652566 0.115194865 0.034592856 0.08526699
-0.13663165 -0.12444084 -0.0048185564 0.0008443445 -0.051297158 -0.28615472 -0.19901012 0.15409356
-0.07432451 -0.14333485 -0.2236418 -0.039837815 -0.230521 -0.14983176 -0.16887553 0.12685783
-0.13553587 0.025725728 0.10593618 0.0027738938 0.10602734 -0.16913834 -0.0068618506 -0.14379886
0.056358032 -0.079020716 0.10376112 -0.036071613 0.15759163 0.1324241 -0.15445293 0.16197832
-0.37174127 -0.22804828 -0.100558564 -0.053281963 0.17532723 -0.36525452 -0.03813848 -0.18892969
0.06259665 -0.040539086 0.13552935 0.16350253 -0.102671914 -0.053758428 -0.12566675 0.10303335
-0.16379507 -0.05915972 -0.082366675 0.019341126 -0.058718547 0.13556133 0.05340697 0.03923641
0.10657556 -0.015670642 0.03993681 -0.08284597 0.07446329 -0.054379717 0.13351701 -0.075743705
-0.029108047 -0.15497565 0.10663624 -0.108383946 0.15825029 0.053279728 -0.010016635 -0.066257544
-0.04051608 -0.1259056 0.0534264 -0.1656408 -0.07679438 -0.12193936 0.06295611 0.056524694
0.15858568 -0.026946634 0.1457565 -0.12129088 -0.11430901 -0.1273336 0.004739523 -0.16007839
0.119834706 -0.13830756 0.075144574 -0.077586696 0.0032641739 -0.048137963 0.08403425 0.16768308
-0.17426118 -0.15156284 -0.014655024 0.0062113255 0.16868676 0.07799946 -0.0015330911 -0.15208338

conv1.mlp.2.bias f4 [32]
00000000: 8917 abbd 5d1a 873e 284d fbbd 922e 5c3e
00000010: d99e b7bc 03b8 8abc c0e9 30bc 213f 2abe
00000020: a74f 4d3d e22b 9ebd 3887 3bbe 9159 72bd
00000030: c919 9bbd 9886 cebd 046c 7dbe 5009 493c
00000040: 12a9 283d 61ba 25be 8811 f7bd d272 13be
00000050: 65c8 03be dae0 39be d6cf 31be 5fed 13bd
00000060: ce6e 1dbe f077 34bd 926a fdbd 426a 553e
00000070: 3128 90be 89f4 853e e001 8ebe 4daa 423e
-0.08354098 0.263873 -0.12270576 0.2150214 -0.022414612 -0.016933447 -0.010797918 -0.16625644
0.05012479 -0.07723214 -0.183133 -0.05916745 -0.075732775 -0.100842655 -0.24748236 0.012270287
0.041176863 -0.16184379 -0.12063891 -0.14399269 -0.12869413 -0.1815218 -0.1736444 -0.036115047
-0.153743 -0.044059694 -0.12373842 0.20841315 -0.28155664 0.26163128 -0.27735806 0.19010277

conv2.mlp.0.weight f4 [32, 35]
00000000: f047 ef3d 0109 3c3e dc72 f5bd c8ec 93be
00000010: 677a f63c 690e d93d b040 cf3d 8cb1 ce3d
00000020: aabd a53e feb5 6fbd f6b7 5ebb c7d4 28be
00000030: a53e e53e d98a 553d 1298 8e3d 14d8 cd3d
00000040: a7e2 963e d23f 053e 2c06 933d cb36 61bc
00000050: 122c 263e 1860 d03d 5473 f93d 21e8 efbe
00000060: de79 07be 1549 d63a 00c2 c0b9 fb97 fabe
00000070: 7bfe 573d 3866 c9be 8267 20be 4423 7d3d
00000080: 9208 0e3f 22fd fcbe feb2 4a3f 236c 11bf
00000090: 6ae8 aa3e 9e01 6abd 548e c13d dcf2 303c
000000a0: 9b95 543d 0026 f3bc 3c63 dcbd e49d 6cbe
000000b0: 0c83 3a3e e899 a33d 5f2f 173e c3ac f63e
000000c0: 4712 f73c 1f4d dc3d 4731 5ebd 98b9 253d
000000d0: 9416 7dbd b8cc f9bd b96f 0b3e 14ac 25be
000000e0: 72f3 193e b9fa 943d a84d f43e 7a93 2f3c
000000f0: 6e41 60be 2d20 e5bd 3fcb c63e 3901 6f3d
00000100: ab88 0a3f 0b30 b9bd 27ec 61bf 7ed9 2e3e
00000110: 591e 613d 2e74 01be 0c96 27be e5dd c5bd
00000120: cc5a 53be f207 2bbe 8aa6 55be 6414 69be
00000130: 5085 403c 66ea 76bd 5448 f73c 8d36 50be
00000140: c5bc 023d ca94 5bbe 93a9 0cbe a64e 5abd
00000150: 80ca a03a 1521 29be 1385 99bb 7838 1dbd
00000160: c00e c93c b998 3abd c088 3f3c 78b5 89bd
00000170: a573 5dbe 53b7 17be 546f 003d 9ce8 b7bd
00000180: c025 8e3b b096 7cbd 3a09 18be ced8 2abe
00000190: 5211 39bd da08 1dbe 3db5 26be 0ee3 b8bc
000001a0: d106 063d 70a2 9c3c c6cb b53e cb75 4bbe
000001b0: 0649 86be ef72 87be 3741 0ebe 047e 813d
000001c0: 28eb c8bd 507e f93e 4b76 a83d 16fa 57be
000001d0: 6042 253c d65b 103f 9ca9 123e 8498 3abe
000001e0: 44d1 a73c 6ffa 003f a0c5 afbc 0060 b238
000001f0: 671a de3e cc50 2a3e b3c0 e73d a0dc 24be
00000200: 3fed b13d a69b 41bd 4787 b9be 7c79 123d
00000210: 1604 463e b620 c2bc 96ef 573e 8394 6cbe
00000220: fc98 5dbc 000a d4be dbe0 b4bc 6187 40bf
00000230: 7c78 49bd b30f 0abe 7ee0 5dbd 625a 953d
00000240: f89e 01bd 6c0b ea3d f8cb 193e 60a5 863d
00000250: 106e abbe 50d2 49bc ecbf e9bd edcd 3cbd
00000260: 1bd7 8fbd 74ed 783d 60ac f4bb 6e6f bfbd
00000270: bd97 b7bd 1464 b03d b4e6 5dbd 4497 903d
00000280: 88fd e33d 31e8 cebd 5c2d d63d ec1d d23d
00000290: 9895 0a3e c7b7 14be 44d3 c2bd 68c7 77bd
000002a0: 565d 0fbe 2861 25be 6033 213c ef5d 4ebe
000002b0: e19c 913d 6659 8a3d 79bf 31bd 4677 ca3e
000002c0: 2927 debe 5baf b53d 2922 c43d 733b aabc
000002d0: 3120 41bc 2a60 133e 9887 e43d 0034 b53e
000002e0: 40d7 d3bd 1b86 c8bd 42e6 85bd e843 253d
000002f0: 666f 5b3e ee98 38be 3ab6 743d caa1 773e
00000300: 20b3 673d d6dd 293e 8232 dd3d b8c1 0cbd
00000310: fcb7 20be 29e5 2b3e 7e49 52be 0f1e 83be
00000320: e7fa b0bc e41f 0c3e fa04 acbe 8ed4 38bc
00000330: 7062 45bf 50c1 0c3c 2847 003f ad94 fc3e
00000340: 6aa6 633c 912d 473e 2b53 423e 27dc 08bf
00000350: 8a45 53be 5319 c73d ac2a beb9 d5e0 153e
00000360: ea6f 1bbe 9c7e 3d3d bac6 30bf a06d 473e
00000370: a6cc 733e 37e0 813d a038 5cbf c0c2 4c3c
00000380: c87c 283f 666e 7ebe 5d73 f1be 1810 cc3c
00000390: a864 d4bc 48cf 04bf 104c 3d3c 36a3 89be
000003a0: dbf5 923d ede3 323e 5573 96bd 343e 30bd
000003b0: 0128 19be fbf9 703c 1096 773e fd0c 323d
000003c0: f80b bd3e e604 63be b73e 583f 3530 2a3e
000003d0: aa11 e23e 382a 813e a3d5 8dbe 2e03 9abd
000003e0: 9923 fd3d 67e4 1e3e 7a7a ebbd defa 6abd
000003f0: bc48 c23d 029a d03e 54b7 0f3d 812d 3cbe
0.11683643 0.1836281 -0.11984798 -0.28891587 0.030087663 0.10598452 0.1011976 0.10092458
0.32371265 -0.05852317 -0.003398416 -0.16487418 0.44774356 0.05213437 0.06962599 0.10050979
0.29469797 0.13012627 0.071789116 -0.013745974 0.16227749 0.101745784 0.121802 -0.46856788
-0.13230082 0.0016348684 -0.00036765635 -0.48944077 0.052732926 -0.393358 -0.15664485 0.06180121
0.5548183 -0.49411875 0.7917937 -0.5680563 0.33380443 -0.05713045 0.09450975 0.01080009
0.051900487 -0.029681206 -0.10761115 -0.23107105 0.18214053 0.0798834 0.14764164 0.48178682
0.030160083 0.10756897 -0.054246213 0.0404602 -0.06178911 -0.1219725 0.13616838 -0.16178924
0.15034273 0.07274384 0.47715497 0.0107163135 -0.2189996 -0.11187778 0.3882694 0.058350775
0.5411479 -0.090423666 -0.88250965 0.17075154 0.054960582 -0.12641975 -0.16365832 -0.09661464
-0.20640105 -0.1670225 -0.20864311 -0.22761685 0.011750534 -0.060282134 0.030185856 -0.2033331
0.031918306 -0.21443477 -0.13736562 -0.05329766 0.0012267381 -0.16516526 -0.004685053 -0.03838393
0.024543166 -0.045555804 0.011690319 -0.067240655 -0.21626146 -0.14816026 0.03135617 -0.089799136
0.0043379962 -0.061667144 -0.1484727 -0.16684267 -0.045182534 -0.15335408 -0.16280074 -0.022569206
0.032721344 0.019120425 0.3550703 -0.19869153 -0.26227587 -0.26454875 -0.13892065 0.06322864
-0.098104775 0.4872918 0.082256876 -0.21091494 0.010086626 0.5639013 0.14322513 -0.18222243
0.020485528 0.5038213 -0.02145654 8.505583e-05 0.43379518 0.16632384 0.11316051 -0.16099787
0.08687829 -0.04726758 -0.3623602 0.035760388 0.19337496 -0.023697238 0.21087489 -0.23103528
-0.013525244 -0.4141388 -0.022079876 -0.7520657 -0.04918717 -0.13482551 -0.05416917 0.0729263
-0.031645745 0.1142796 0.15019214 0.065745115 -0.3348241 -0.012318209 -0.11413559 -0.046094824
-0.0702345 0.060773328 -0.0074668378 -0.093474254 -0.08964489 0.086128384 -0.054175094 0.07060102
0.111323416 -0.10102881 0.1045787 0.102596134 0.13533628 -0.1452323 -0.09512952 -0.060492903
-0.14000449 -0.16150343 0.009838909 -0.2015302 0.071100004 0.06755333 -0.043395493 0.39544123
-0.43389252 0.08871337 0.09576828 -0.0207803 -0.01178746 0.14392152 0.11158675 0.35391235
-0.1034379 -0.097912036 -0.06538059 0.040347964 0.21429214 -0.18027088 0.059744097 0.24182811
0.05656731 0.1658853 0.10800649 -0.034364432 -0.15695184 0.16786636 -0.20535848 -0.2560887
-0.021604015 0.1368404 -0.33597547 -0.011281146 -0.7710333 0.008591011 0.50108576 0.4933218
0.013894657 0.19450976 0.18977039 -0.53460926 -0.20631996 0.09721627 -0.00036271417 0.14636548
-0.1517941 0.046263322 -0.6905323 0.19475412 0.23808536 0.06341594 -0.860239 0.012497604
0.658154 -0.24846801 -0.47158328 0.024910018 -0.025926903 -0.51878786 0.011553779 -0.26882333
0.071757995 0.1746976 -0.073462166 -0.04302807 -0.14956667 0.0147080375 0.24178338 0.043469418
0.36923194 -0.22169837 0.84470695 0.16619952 0.44154102 0.25227523 -0.27702054 -0.07520138
0.12360305 0.15516816 -0.1149797 -0.05736815 0.09486529 0.407425 0.035086945 -0.18376733

conv2.mlp.0.bias f4 [32]
00000000: 34ea 0fbe 8449 bb3e 3f97 7abd f88b 243d
00000010: eed9 bbbe 1d41 483e 1dcb 1b3f 17bd fe3d
00000020: a09c 933c a451 b7be cc24 d53e 273d 86be
00000030: 4ebb 16be ac45 743e 463e 9dbe 3ad2 c2be
00000040: 6241 9cbd 706b 09be b8da 82be 40de c3be
00000050: 4e77 403e 8543 71be 2228 8a3d 1d2c 1fbe
00000060: 7142 60bd 9b95 66be a9b0 23be 3e9e 3abe
00000070: 931a 7dbe 0e90 85be 85f9 a0be ba8c 143f
-0.14054185 0.36579525 -0.061179396 0.040172547 -0.36689705 0.19556089 0.608568 0.1243841
0.01801902 -0.35804474 0.41629636 -0.2621853 -0.14719889 0.23854703 -0.30711573 -0.38051015
-0.07629658 -0.1341989 -0.25557494 -0.382555 0.18795511 -0.23560913 0.06745936 -0.15544172
-0.054750863 -0.22518007 -0.15985359 -0.18224427 -0.24717169 -0.26086468 -0.31440368 0.5802723

conv2.mlp.2.weight f4 [32, 32]
00000000: 8009 dc3b f316 31be 3229 e6bd 509e 1fbe
00000010: a7ae 2dbe 9127 f1bd 7bff 9b3d 0f03 e5bd
00000020: 382a e83c b1ba 163e e278 42bd 28d2 d0bd
00000030: fd28 89bd d80c 2f3d e3dd 323e cf61 90bd
00000040: 1221 d33d 4448 583d 189d 513d 5c93 ca3d
00000050: ea0b c6bd ace1 0dbe 9cbc 1dbe fae2 50bd
00000060: 6c0e f73c 509c e5bc ed15 2bbe 4d32 27be
00000070: 0a5b 05be 3299 21be 7a6b 40be 2550 d5bd
00000080: e3f0 1b3e 4431 45be eebe 9cbd 6370 8bbe
00000090: e249 2bbe 4d0b 02be 6014 d8bd 2ef4 a2bd
000000a0: 3ca3 edbd 58ea f63c 60d7 a7be 51eb 093e
000000b0: e6af fbbd d5b2 8abe 7e5e db3d 22af 4b3e
000000c0: 630c f3bc 0045 37bb bd92 c5bd 03c6 343e
000000d0: 5966 b9be ae65 24be e566 ec3d b6d7 a0bc
000000e0: aa61 e93c 8a30 e7bd f74e 86be 10e4 353d
000000f0: 06c0 58be a49d 4b3d ab5e a3be 1d93 aebe
00000100: 2116 9dbd 1a9a 253e 984b 14bd 3782 963e
00000110: 12a5 dcbd 4bb7 40be cd02 8fbf 2c70 54be
00000120: 5cb3 083f 4e66 283c 150b 9fbe 715b 1d3e
00000130: 7c25 883d 52c6 a1bd 8008 f8bc f17d 143e
00000140: 3626 953d 62c9 193d b429 97bc 24f7 023f
00000150: 95a7 c9bc c563 acbd 39f4 d13e 3619 4c3e
00000160: b05c aebd e358 2c3d 897b 713f a08f bdbc
00000170: b68b 3e3f a811 053e 589a 313f 38de 8dbf
00000180: 83ad f5bd 002b 5abe 0798 34be bdd0 4abd
00000190: 7084 bcbc 4d3e 80be 5df8 bcbd c6ad 4c3c
000001a0: dece 56be bf24 203e fdbf 86be 8604 febd
000001b0: c3a1 2e3e 1834 a83d e2ef b73d 2484 9e3b
000001c0: 3403 1d3d 2672 b73d 6ee1 1fbe 694c 8f3d
000001d0: c9c3 15be dd37 1b3e 2bff 503d 59df 48be
000001e0: 113b 893d 442e 43bd f37f e7bd fcdf 4d3d
000001f0: 25b3 c3bd 316f c2bd e966 ab3c c3f3 8cbe
00000200: fab6 853d 01e9 59bf d843 8abd 9875 0cbf
00000210: 00fd 49bd 4652 c33e 0e88 813d 1dbd 0a3e
00000220: d85e 40bf 0bd0 82bd 87ac 383f 0f17 08be
00000230: 5840 83bd 2bc1 f63e 9fb1 a1bd 0cea aebd
00000240: 115a 6c3d 0d61 10bf fb5f d7bd a646 8fbe
00000250: d9e1 133f 85b1 2b3e 35be a0bf 26ec 04bf
00000260: 8d4c 21be 7dbf bcbc efa4 af3d 9f3d 8bbd
00000270: 3d62 f1bd 0d2a 0bbe 9ec6 09bf 6c2f dd3e
00000280: 40fc a93b 185f a5bd cc61 793d cc4f d8bd
00000290: a094 ef3b 6617 c33c be2c c4bd 5f52 ea3d
000002a0: a9e6 193c 1f46 0fbe ce7c 3b3d d866 1abe
000002b0: 9e3c d83d 0741 1bbe 083e 66bd 6088 86bb
000002c0: b64f 92bd 3a1c 66bd 5026 3bbd 55fe 2a3e
000002d0: 78b5 a4bd 60eb 1d3d e2fe 00be f7df 953c
000002e0: 4a5a 89bd 8ae0 ba3d b098 b3bd f8bd 57bd
000002f0: 60ef 9f3d a159 193e d0d6 823d e56c babc
00000300: d939 f1bd e4e3 003f 11ea 30be 4ad4 983e
00000310: 32cf 9bbd d3f1 1ebf ac32 79be 4d8f 09bf
00000320: 8724 733e 2145 373d 7847 a6bf b734 323e
00000330: 6f82 263e 0637 edbe e4db 7b3d 2706 eebd
00000340: a79f 2b3e 843d b33b 18c5 373e ee78 4b3e
00000350: 1b19 9ebe dd88 303e 07be 173f 322d 973c
00000360: 25c6 ffbc 7db0 553e 86a9 f9be fd55 adbd
00000370: 6d10 a5be 5dfd 40bd 9852 0abe 2478 b13e
00000380: b8c9 8fbc 4bdb f0bd 79c5 0a3e 5c8d fcbc
00000390: 69a2 333e 89fc 61be 7e06 a53d 3b3c 3fbd
000003a0: 96c7 2cbe 0027 64bd d69d 19be 0abf 34be
000003b0: 9c25 bbbd 3708 91be facc 8fbc f6e1 b73d
000003c0: 10da 9cbc 0099 23bd 142c 06be ce05 f63d
000003d0: 8fcb 9dbc 0ee0 023d ca3e 7fbd 2eef 44be
000003e0: 7d0e 2c3e b003 19bd a584 ffbd 93fc 843e
000003f0: eb93 a5bd fa7a bb3d 808d 113c 28da 1bbd
0.0067149997 -0.1729391 -0.11238326 -0.15587735 -0.16961156 -0.11775125 0.076170884 -0.11182224
0.028340444 0.14719655 -0.047478564 -0.10196334 -0.06697271 0.042736858 0.17467456 -0.070499055
0.10309042 0.052803293 0.051175207 0.09891388 -0.09670241 -0.13855618 -0.1540398 -0.05099771
0.030158244 -0.028028637 -0.16707583 -0.16327782 -0.1302301 -0.15781096 -0.18790999 -0.10415677
0.1522861 -0.19257075 -0.076536044 -0.27234182 -0.16727403 -0.12699623 -0.10550761 -0.0795673
-0.116034 0.03014104 -0.32781506 0.13468672 -0.12289409 -0.27089563 0.10711382 0.19891027
-0.029668992 -0.0027964711 -0.09647129 0.1765366 -0.36210898 -0.16054413 0.11543063 -0.019634109
0.028488953 -0.11288555 -0.2623212 0.04440695 -0.21167001 0.049710885 -0.31908163 -0.34096614
-0.076702364 0.16172066 -0.036204904 0.2939622 -0.10773672 -0.1881992 -1.117273 -0.20745915
0.5339868 0.010278298 -0.31063142 0.15366913 0.066477746 -0.07899155 -0.03027749 0.14501168
0.07282679 0.03754557 -0.018452503 0.51158357 -0.024616042 -0.08417467 0.4100664 0.19931492
-0.085137725 0.042076956 0.94329125 -0.023139775 0.7443193 0.12995017 0.69376135 -1.1083441
-0.11995985 -0.21305466 -0.17636119 -0.049515475 -0.02301237 -0.25047532 -0.09227059 0.012492603
-0.20977351 0.15639018 -0.2631835 -0.124032065 0.17053895 0.08213061 0.08981301 0.0048375297
0.038333133 0.08957319 -0.15613338 0.06996996 -0.14625467 0.15158029 0.051024597 -0.1961645
0.06700719 -0.047651544 -0.11303701 0.050262436 -0.095556535 -0.09493864 0.020923095 -0.27529725
0.06529041 -0.8512116 -0.067512214 -0.54866934 -0.049313545 0.38148707 0.063247785 0.13548703
-0.7514472 -0.06387337 0.72138256 -0.13290046 -0.06408757 0.4819425 -0.07895207 -0.08540735
0.05770308 -0.5639809 -0.10516354 -0.27983588 0.5776649 0.16766937 -1.2558047 -0.51922834
-0.15751858 -0.023040527 0.085763805 -0.06798863 -0.117863156 -0.1359026 -0.5381869 0.43200243
0.0051875412 -0.08074778 0.060884282 -0.10562095 0.0073114187 0.023814868 -0.095788464 0.11441492
0.009393373 -0.13991593 0.04577332 -0.15078294 0.10558437 -0.15161525 -0.0562115 -0.0041056126
-0.0714411 -0.056179263 -0.045690835 0.16698582 -0.08042425 0.03855455 -0.1259723 0.018295271
-0.067066744 0.09124859 -0.08769357 -0.052671403 0.07809329 0.14975597 0.063886285 -0.022757003
-0.11778612 0.50347733 -0.17276789 0.29849464 -0.07607879 -0.62087744 -0.24335736 -0.53734285
0.23744403 0.04474366 -1.299056 0.17402922 0.16260694 -0.46331042 0.061489 -0.11622267
0.16760121 0.0054699797 0.17946279 0.1987035 -0.3087853 0.17239709 0.59274334 0.018454168
-0.031222412 0.20868106 -0.4876215 -0.084636666 -0.32239094 -0.047116626 -0.1350807 0.34661973
-0.017552242 -0.11760577 0.13551892 -0.030829124 0.17542423 -0.22068991 0.08057879 -0.0466883
-0.16873011 -0.055701256 -0.15001616 -0.17651 -0.09138033 -0.2832658 -0.017553795 0.089786455
-0.019146949 -0.039940834 -0.13102752 0.12012826 -0.019262103 0.031951956 -0.06231574 -0.19231865
0.16802402 -0.037357032 -0.12476472 0.2597395 -0.08084854 0.09154315 0.008883834 -0.038049847

conv2.mlp.2.bias f4 [32]
00000000: 4906 31bd 91e6 05be 6e3e 04bf b2b0 3bbc
00000010: b713 b33e ba57 06be f5b3 c43e 1811 ffbd
00000020: 08e4 46be 3353 3c3c eeaa c63e 5f94 8f3c
00000030: d6e3 96be 76d7 9b3d 2068 7ebe 524a 7e3c
00000040: d8e7 f63d 29ee 78be 3a1f 4cbe 6e5e 363e
00000050: 4ba3 7b3e 71aa 92bc a247 e53e 0434 8c3c
00000060: 54f5 75be fbd6 41be 7b3c 0f3e 7455 31be
00000070: 1856 17be ae17 b2bd 0b43 98bd 5149 82bc
-0.043218885 -0.13076235 -0.5165776 -0.011455702 0.3497598 -0.13119403 0.38418546 -0.12454432
-0.19422925 0.011494446 0.38802284 0.017526804 -0.294707 0.07609455 -0.24844408 0.015520649
0.120559394 -0.24309601 -0.19933787 0.1780946 0.2457401 -0.017903538 0.44781214 0.017114647
-0.24019367 -0.18929665 0.13987915 -0.17317754 -0.14778936 -0.08695923 -0.074346624 -0.0159041

classifier.weight f4 [7, 32]
00000000: c467 cfbd a7b6 ff3c 58bd 2bbf 1d9e 24be
00000010: 4aed 89be de03 27be 4f4a d03e 9838 95bd
00000020: 4e35 bbbd 6f93 603d 7464 b03e c3eb ef3d
00000030: da18 e0be 0b6d bd3e e136 b5bd aabc 013d
00000040: 32f5 2e3e fbcd cfbe a4b2 283e 4b69 913e
00000050: a090 a53e acdf 253e 5efb 2a3e 633b 313e
00000060: 59d6 95bd 0d97 6fbc 8624 443e d0dd 6dbc
00000070: a3b0 f8bf b43c 633d cb0e 783d 630d 5ebe
00000080: 2579 9b3c 2616 49bd f47a 85bf cf05 d63a
00000090: aaa1 573e ce7d 92bd 4323 2dbe a4a3 9dbd
000000a0: e39b 3fbd 146d 3e3d 5842 35bd 2665 a83d
000000b0: 7995 02bf c20e c3be 22a9 a6bc 41ca da3d
000000c0: 9ae3 dfbe 0da7 91be 99e3 d0be 5471 86be
000000d0: 85e6 9fbe 73cd c4bd ed86 8c3d 8817 f1bd
000000e0: 8aaa 853c b0f0 03be b16c 26be bce8 9abd
000000f0: 844d f43d c0c9 1cbc ac65 a5be 0038 edbd
00000100: 0b65 bd3d f556 4cbd 0f6b 25bd db3e 6abd
00000110: 6ab0 cdbe b653 d8bc fe97 413e 420b 93bd
00000120: 7048 abbd cbc7 b6bd 204f 653d 7c61 56bc
00000130: 79c1 22bf c46c f93d 5cb3 4bbe 00d3 b5bd
00000140: 323e 123d 4b4d 84be 3e95 4cbe 2d42 873d
00000150: 2824 323e 0831 83bd 18aa 07bf 40c4 23be
00000160: 1836 d2bc 9b02 b6bd 94be f73d 634a bbbd
00000170: 339e 53be b622 a63d b91f 7abe 2534 713d
00000180: 4f71 04bd 98a9 2abe 7449 4b3f 58ea 8abc
00000190: 296d a1bf 64b0 96bd b01f e7bd 7013 db3d
000001a0: 1f22 c2bd e830 f8bd b893 02be 55a3 7ebd
000001b0: 347b c5be 2a47 cf3e bdbe 96bd 4ede e7bd
000001c0: 15d2 2c3e 027b 0dbd 7b5d edbd 8549 963e
000001d0: 7897 a93e 032f 45bd 8720 92bf 7c00 aabd
000001e0: a676 a33b df0e 22bd dabb 103e ac63 163d
000001f0: cc43 d9be a6b8 bcbd c2e1 013e 00c7 713d
00000200: caa0 46be e5cc f53d 2832 cbbe c491 6fbd
00000210: 3e5b 80be 7034 143c 0d8e 863c 1ea6 243e
00000220: 5e8f 68bd 32e5 c2bc 905d c9bd 8b8f 8ebc
00000230: dc36 233c eba1 f0bd e985 83be 86f6 13be
00000240: 77f5 f9bd 568a 57be bf79 0b3d 4800 953d
00000250: baa0 29be 65dd 06be 93dc d5be e458 2f3d
00000260: d231 8cbd db6b 8bbd 521a 443d 4e76 113c
00000270: cf0e 053f f89b d23c ee1b 8b3e 417f 10bd
00000280: 6452 debd 0a32 5f3e 3433 88bf 55a3 a1bd
00000290: f8a4 a73e 0f5d bc3d 4c54 80bd 4649 aabe
000002a0: cabb 22be 99c0 18bd 3e1f 2dbc 85dd bd3d
000002b0: 4455 86bd d133 98be 20dd c0bd 79e0 293d
000002c0: 9f25 abbe 2a24 163d 4bcc 4d3e df64 cabd
000002d0: 94a5 94be 02ba b8bd 81a9 643e 998a 69be
000002e0: 9bc2 d0bd 862f 7abe 784c b5bd f734 05be
000002f0: dc5f 92bd 1714 243e e584 44be 520e 2abd
00000300: 7ff8 c7bd cb71 8fbe 6d46 99bf 8b8f 22be
00000310: 5c90 e63e 0eba 50be e7cd 0dc0 8cc8 54bc
00000320: 1e80 9eba 9cf4 373e 475f a2bf be76 943d
00000330: 160c 3d3e 21d6 9dbf bd91 0ebe fb77 90bd
00000340: 087e e9bf 1005 a1bd 601c 71bd 0319 e8bf
00000350: 690e babf f2b2 603d 36ba d63e 8da1 dbbd
00000360: 10b6 cfbd d15e 27be 2f75 65bf 6258 03bd
00000370: 71c1 b03e 2111 e7bd 61c3 7bbd 545b 15be
-0.101272136 0.031215025 -0.6708579 -0.1607594 -0.2693885 -0.16310069 0.40681693 -0.07286185
-0.091410264 0.054828104 0.3445164 0.1171489 -0.4376896 0.36997256 -0.08848358 0.031674065
0.17085722 -0.40586838 0.16474396 0.28400645 0.32336903 0.16198605 0.16697451 0.1730781
-0.07316274 -0.014623416 0.19154558 -0.014518216 -1.9428905 0.055477813 0.060560983 -0.21684794
0.018978665 -0.049093388 -1.0428147 0.0016328635 0.21057764 -0.071529016 -0.16907983 -0.076972276
-0.046779525 0.046490744 -0.044252723 0.082224175 -0.5100933 -0.38097197 -0.02034432 0.10683108
-0.43728334 -0.28447762 -0.40798643 -0.26258337 -0.3123056 -0.09609499 0.068616726 -0.11772066
0.01631667 -0.12884784 -0.162524 -0.07563922 0.119288474 -0.009569585 -0.32304132 -0.11582947
0.09247788 -0.049887616 -0.040385302 -0.05718885 -0.40173656 -0.026407104 0.18905637 -0.07179882
-0.08363426 -0.08924826 0.055983663 -0.0130847655 -0.63576466 0.121789485 -0.19892639 -0.08878136
0.035703845 -0.2584022 -0.19978806 0.06604419 0.17396605 -0.06405836 -0.5299392 -0.15992832
-0.02566056 -0.08887216 0.12096897 -0.091450475 -0.20665817 0.08112089 -0.24426164 0.05888762
-0.032334622 -0.16666257 0.79408956 -0.016957447 -1.2611438 -0.073578626 -0.11285341 0.10697067
-0.09479164 -0.12118703 -0.12751663 -0.062167484 -0.3857056 0.4048398 -0.07360599 -0.11321698
0.16877015 -0.034541138 -0.115900956 0.29352966 0.33123374 -0.048140537 -1.1416177 -0.08300874
0.004988509 -0.039564963 0.1413416 0.03671615 -0.42434537 -0.092149064 0.12683776 0.05902767
-0.19397274 0.12001971 -0.39686704 -0.058488622 -0.25069612 0.009045705 0.016425157 0.16078994
-0.05677735 -0.02379093 -0.09832299 -0.017402431 0.00996181 -0.117496334 -0.25688103 -0.1444951
-0.12205022 -0.21048865 0.034051653 0.07275444 -0.16565219 -0.13170393 -0.41769847 0.042809382
-0.0684544 -0.06807681 0.047876664 0.008878304 0.5197572 0.025709137 0.27169746 -0.03527761
-0.108555585 0.21796432 -1.0640626 -0.07892481 0.3274305 0.09197437 -0.06266078 -0.33259028
-0.15891948 -0.03729305 -0.010566531 0.09270767 -0.06559232 -0.29727033 -0.09417176 0.04147384
-0.3342714 0.036655582 0.20097463 -0.09882521 -0.29032576 -0.09019853 0.22330286 -0.22806777
-0.10193368 -0.24432191 -0.08852476 -0.13008486 -0.0714719 0.16023289 -0.1919132 -0.041517563
-0.09764194 -0.28016505 -1.1974617 -0.1587507 0.45032012 -0.20383474 -2.2156923 -0.012987267
-0.0012092625 0.17964405 -1.2685326 0.07249211 0.18461642 -1.2330972 -0.13922782 -0.070541345
-1.8241587 -0.07862294 -0.05886495 -1.8132633 -1.4535648 0.054858156 0.41938943 -0.10724173
-0.101421475 -0.16344763 -0.8963193 -0.03206671 0.34522584 -0.11282564 -0.061465625 -0.1458562

classifier.bias f4 [7]
00000000: 0dea 3d3f 0df5 2c3c 1823 81be 6e5d 4ebf
00000010: a381 22bf e5a1 3b3e 6693 a03e
0.7418526 0.0105564715 -0.25222087 -0.8061131 -0.6347906 0.18323477 0.31362456
